[
  {
    "class_name": "Conv2D",
    "config": {
      "trainable": true,
      "batch_input_shape": [
        null,
        30,
        30,
        1
      ],
      "filters": 32,
      "kernel_size": [
        5,
        5
      ],
      "strides": [
        1,
        1
      ],
      "activation": "relu"
    }
  },
  {
    "class_name": "Conv2D",
    "config": {
      "trainable": true,
      "filters": 64,
      "kernel_size": [
        4,
        4
      ],
      "strides": [
        2,
        2
      ],
      "activation": "relu"
    }
  },
  {
    "class_name": "Flatten",
    "config": {}
  },
  {
    "class_name": "Dense",
    "config": {
      "units": 512,
      "activation": "relu"
    }
  },
  {
    "class_name": "Dense",
    "config": {
      "units": 4,
      "activation": "linear"
    }
  }
]